sofos/_2048/training_saves/without_stop_when_illegal_move/policy_network_v2_1000_1098.8011988011988.pt (torch, 598044 bytes, 6 tensors)

input.weight f4 [128, 1, 2, 2]
000000 f0 f4 79 42 5e 66 79 42 50 13 7a 42 52 57 7a 42
       62.489197 62.349968 62.51886 62.585274
000010 b3 12 7a 42 4e 3b 7a 42 38 bd 79 42 b9 8c 79 42
       62.51826 62.557915 62.434784 62.387424
000020 0a a1 79 42 78 e7 78 42 4d 63 79 42 3c de 79 42
       62.407265 62.226044 62.346973 62.467026
000030 1e 5f 79 42 29 ea 78 42 c5 28 7a 42 77 11 7a 42
       62.342888 62.228672 62.539814 62.517056
000040 62 c9 79 42 d4 3a 7a 42 ca af 79 42 65 33 7a 42
       62.446663 62.55745 62.42167 62.55019
000050 e2 1e 79 42 cc 37 7a 42 c4 dc 79 42 e1 70 79 42
       62.28016 62.55449 62.46559 62.360233
000060 2c 2b 7a 42 9c f5 78 42 be b8 79 42 df d7 78 42
       62.54216 62.239853 62.430412 62.21081
000070 65 c2 78 42 e1 a5 78 42 eb fb 78 42 07 dd 78 42
       62.18984 62.16199 62.246014 62.215847
000080 46 e5 78 42 69 1c 7a 42 5a d2 79 42 29 da 78 42
       62.2239 62.527744 62.45542 62.213047
000090 64 be 78 42 9e b3 79 42 13 51 78 42 1b ae 78 42
       62.18593 62.425407 62.079174 62.170025
0000a0 0a a1 78 42 e5 6d 77 42 eb f9 78 42 c1 90 78 42
       62.157265 61.85732 62.24406 62.14136
0000b0 7b 11 79 42 a0 e0 77 42 3e dd 78 42 8f 2e 77 42
       62.26707 61.96936 62.216057 61.795467
0000c0 0b bf 78 42 f8 2a 79 42 a2 cd 79 42 1a 5d 79 42
       62.186565 62.29196 62.450813 62.34092
0000d0 be 3f 79 42 a7 1e 79 42 26 3a 79 42 59 dc 77 42
       62.31225 62.279934 62.306786 61.965183
0000e0 f2 f9 78 42 d0 f8 79 42 c6 0a 7a 42 34 90 79 42
       62.244087 62.49298 62.51052 62.390823
0000f0 01 df 79 42 6f b7 79 42 22 54 7a 42 f0 5b 79 42
       62.467777 62.429134 62.58216 62.339783
000100 48 04 7a 42 09 2d 7a 42 d0 61 79 42 f3 45 7a 42
       62.50418 62.54398 62.34552 62.56831
000110 91 c0 79 42 86 82 79 42 91 dc 79 42 b1 18 79 42
       62.438053 62.377464 62.465397 62.274113
000120 fc 1d 7a 42 71 82 79 42 44 58 79 42 19 06 7a 42
       62.52928 62.377384 62.336197 62.505955
000130 55 5f 79 42 02 ab 79 42 00 c6 79 42 9a 2f 7a 42
       62.343098 62.417 62.44336 62.546486
000140 f6 8d bc ba 64 c7 b5 bc 02 1d d6 bd 58 62 00 bc
       -0.0014385569 -0.022189803 -0.104547516 -0.007835947
000150 1c a5 78 42 c5 b4 79 42 8e 8a 78 42 80 2f 79 42
       62.16124 62.426533 62.135307 62.296387
000160 69 a3 78 42 88 43 78 42 8f ab 79 42 4e af 77 42
       62.15958 62.06595 62.417538 61.921196
000170 3f 52 79 42 f2 42 79 42 af 36 7a 42 10 51 79 42
       62.33032 62.315376 62.553402 62.329163
000180 17 2a 79 42 57 74 79 42 68 a0 78 42 25 9b 78 42
       62.291103 62.363613 62.156647 62.15151
000190 bd 7f 79 42 86 47 7a 42 2b 21 7a 42 95 42 79 42
       62.374744 62.569847 62.53239 62.31502
0001a0 59 2d 7a 42 f7 02 7a 42 9f 17 7a 42 86 dd 78 42
       62.544285 62.502895 62.523067 62.21633
0001b0 a3 c8 79 42 58 b6 79 42 ba 34 78 42 2f b7 78 42
       62.445934 62.42807 62.05149 62.17889
0001c0 6b 9c 79 42 52 05 79 42 2a cc 78 42 c3 62 78 42
       62.402752 62.255196 62.19938 62.096447
0001d0 0f e4 79 42 8c 44 7a 42 80 f2 79 42 25 24 7a 42
       62.472713 62.56694 62.486816 62.535297
0001e0 9e f4 78 42 c8 c6 79 42 25 ab 79 42 69 41 79 42
       62.238884 62.444122 62.417133 62.313877
0001f0 83 50 79 42 d1 51 79 42 1d cf 79 42 8f 27 79 42
       62.328625 62.3299 62.45226 62.28863
000200 92 bd 79 42 72 c5 79 42 db 5b 79 42 9e 30 7a 42
       62.435127 62.442818 62.339703 62.547478
000210 37 49 78 42 7d 8f 78 42 ec cb 78 42 5d 49 79 42
       62.0715 62.140125 62.199142 62.321644
000220 d2 00 79 42 55 3f 77 42 62 99 78 42 9c c3 78 42
       62.2508 61.811848 62.149788 62.191025
000230 75 14 7a 42 70 cb 78 42 78 9e 79 42 b8 fb 79 42
       62.519978 62.19867 62.404755 62.49582
000240 06 34 7a 42 33 fa 79 42 6c e9 79 42 ba ce 79 42
       62.550804 62.494335 62.47795 62.45188
000250 0e 07 7a 42 2e 0e 79 42 43 3c 7a 42 6f 84 79 42
       62.50689 62.263847 62.55885 62.37933
000260 4c c7 79 42 a9 12 79 42 7e 8e 78 42 54 92 79 42
       62.444626 62.268223 62.139153 62.3929
000270 13 73 79 42 91 1b 7a 42 88 c2 78 42 3d b2 79 42
       62.362377 62.52692 62.189972 62.42406
000280 ed 2b 7a 42 38 c6 79 42 1b f7 79 42 29 42 7a 42
       62.542896 62.443573 62.491314 62.56461
000290 06 cc 78 42 35 57 79 42 d6 64 78 42 85 38 79 42
       62.19924 62.335163 62.098473 62.305195
0002a0 a9 e3 92 bd c4 06 a7 bb 05 38 d2 bc 19 3e 30 bd
       -0.07172329 -0.005097242 -0.025661478 -0.04302797
0002b0 54 8b 79 42 bc 8e 78 42 cf 50 79 42 af ad 79 42
       62.386063 62.13939 62.328915 62.419613
0002c0 cb 0b 12 bc ab a9 14 be 75 bd 66 bd a4 72 b2 bd
       -0.0089139445 -0.14517848 -0.056333024 -0.08713272
0002d0 5f 00 79 42 d6 0c 7a 42 24 c5 78 42 08 8a 79 42
       62.250362 62.512535 62.19252 62.384796
0002e0 69 99 78 42 4a 11 79 42 cc 27 78 42 6e 8b 78 42
       62.149815 62.266884 62.038864 62.13616
0002f0 49 2f 7a 42 c2 ec 78 42 b2 92 78 42 b0 6a 79 42
       62.546177 62.23121 62.143257 62.354187
000300 5a e2 78 42 88 f4 79 42 2f 4e 79 42 56 d9 78 42
       62.221046 62.4888 62.32635 62.212242
000310 82 30 78 42 19 1b 78 42 f3 63 77 42 26 e5 77 42
       62.04737 62.026463 61.847607 61.973778
000320 ba f1 78 42 b4 31 7a 42 d0 08 79 42 36 07 79 42
       62.23606 62.54854 62.258606 62.257042
000330 9c b0 79 42 b2 f4 78 42 bf 9d 78 42 c2 9a 78 42
       62.42247 62.23896 62.15405 62.15113
000340 8b 19 79 42 ca 27 7a 42 60 4c 79 42 5b fa 79 42
       62.274944 62.538857 62.324585 62.494488
000350 96 e7 78 42 01 21 79 42 43 98 78 42 c8 65 79 42
       62.22616 62.28223 62.148693 62.349396
000360 4e 5f 79 42 51 86 79 42 20 5a 79 42 11 10 78 42
       62.34307 62.38117 62.338013 62.01569
000370 3f 26 7a 42 e7 59 7a 42 6f a4 78 42 8f b5 79 42
       62.53735 62.587795 62.16058 62.427303
000380 7b dc 79 42 25 9e 78 42 b0 da 78 42 c6 d6 78 42
       62.465313 62.154438 62.213562 62.20974
000390 72 16 7a 42 70 89 79 42 46 f2 78 42 4c ce 78 42
       62.52192 62.384216 62.236595 62.20146
0003a0 6e 94 79 42 06 2f 7a 42 3d ef 78 42 8a d9 78 42
       62.39495 62.54592 62.23363 62.21244
0003b0 d0 65 79 42 e8 5f 79 42 37 ae 78 42 1b d7 79 42
       62.349426 62.34366 62.17013 62.460064
0003c0 cd 67 79 42 7b 20 7a 42 17 e8 79 42 52 63 7a 42
       62.351368 62.53172 62.47665 62.596992
0003d0 ed 29 79 42 30 fe 79 42 07 6a 78 42 57 31 79 42
       62.290943 62.49823 62.103542 62.298183
0003e0 70 bb 78 42 50 6e 77 42 ef 5d 79 42 26 dc 78 42
       62.183044 61.857727 62.341732 62.21499
0003f0 2d 19 79 42 32 ed 77 42 17 d0 78 42 7c 26 77 42
       62.274586 61.981636 62.203213 61.787582

input.bias f4 [128]
000000 d7 38 7a 42 f6 35 7a 42 5b 76 7a 42 f0 ff 78 42
       62.555508 62.552696 62.61558 62.24994
000010 66 34 7a 42 22 4f 79 42 fd 20 7a 42 de f2 79 42
       62.55117 62.32728 62.532215 62.487175
000020 37 27 7a 42 46 b4 79 42 23 24 7a 42 58 7d 79 42
       62.538296 62.42605 62.53529 62.372406
000030 fc 11 7a 42 09 cc 79 42 37 e4 78 42 7f 2d 79 42
       62.517563 62.449253 62.222866 62.29443
000040 19 4d 7a 42 9c 05 79 42 51 29 79 42 da f2 78 42
       62.57529 62.255478 62.290348 62.23716
000050 a3 41 a7 bd a0 eb 79 42 8f 10 79 42 4a f7 78 42
       -0.08166816 62.480103 62.26617 62.241493
000060 22 36 7a 42 a1 5c 7a 42 d7 d9 79 42 4e ed 79 42
       62.552864 62.590458 62.462734 62.481743
000070 f0 fa 79 42 50 21 79 42 5b 01 79 42 98 d3 79 42
       62.495056 62.28253 62.251324 62.456635
000080 b4 05 79 42 a0 ca 79 42 cf bf 79 42 6f f7 79 42
       62.25557 62.447876 62.437313 62.491634
000090 0b 24 79 42 bb ce 78 42 05 5d 7a 42 7e 9b 79 42
       62.2852 62.201885 62.59084 62.401848
0000a0 5b 39 7a 42 15 3b 7a 42 48 e7 94 bd 3e 96 79 42
       62.55601 62.557697 -0.07270676 62.39672
0000b0 7f 21 36 bd 6f ab 79 42 2c 06 7a 42 6a 41 79 42
       -0.044465538 62.417416 62.506027 62.31388
0000c0 39 de 79 42 d0 bc 79 42 e7 35 79 42 96 55 7a 42
       62.467014 62.434387 62.30264 62.58358
0000d0 e1 67 79 42 bc f0 79 42 96 86 79 42 8c b8 79 42
       62.351444 62.485092 62.38143 62.43022
0000e0 7d 30 7a 42 87 e6 79 42 3d f7 79 42 7e b7 79 42
       62.54735 62.475124 62.491444 62.42919
0000f0 c2 56 79 42 42 be 79 42 26 e0 79 42 81 77 79 42
       62.334724 62.4358 62.468895 62.366703
000100 7e 79 7a 42 64 24 7a 42 c9 fd 79 42 88 a0 79 42
       62.618645 62.535538 62.497837 62.40677
000110 42 25 7a 42 bb 87 79 42 31 b9 ba bd 4e 5d 79 42
       62.536385 62.38255 -0.09117354 62.341118
000120 0e 87 79 42 b4 b1 79 42 13 42 7a 42 45 35 79 42
       62.38189 62.42354 62.564526 62.30202
000130 d0 e0 78 42 da e7 aa bc e3 ee 79 42 6d d4 79 42
       62.219543 -0.020862509 62.483288 62.457447
000140 f3 91 79 42 5b e2 78 42 c3 2c 79 42 fb 37 7a 42
       62.39253 62.22105 62.293713 62.55467
000150 10 31 79 42 00 4f 7a 42 70 d9 55 bb 21 f5 79 42
       62.297913 62.57715 -0.0032630824 62.489384
000160 0d 9c 79 42 86 1f 79 42 b7 3e 7a 42 3f 99 79 42
       62.402393 62.280785 62.561245 62.399654
000170 42 95 79 42 9c e2 78 42 20 9f 79 42 bb 09 79 42
       62.39576 62.2213 62.405396 62.259502
000180 64 d6 79 42 aa 9c 79 42 bc ec ca bc 48 ea 79 42
       62.459366 62.402992 -0.024771087 62.47879
000190 51 df 79 42 d0 dc 79 42 24 46 7a 42 a0 3f 79 42
       62.468082 62.465637 62.568497 62.312134
0001a0 8f d7 79 42 a1 42 7a 42 2c b1 79 42 2a a0 79 42
       62.460506 62.565067 62.42302 62.40641
0001b0 47 53 79 42 91 15 7a 42 8d 36 79 42 38 7b 79 42
       62.331326 62.52106 62.303272 62.37033
0001c0 3e f9 78 42 23 6d 79 42 b8 73 79 42 3a fd 79 42
       62.2434 62.35658 62.363007 62.49729
0001d0 f5 c2 79 42 14 bd 79 42 88 24 79 42 e9 25 79 42
       62.440388 62.434647 62.285675 62.28702
0001e0 1e a5 79 42 65 b3 58 bd f5 e9 79 42 09 87 79 42
       62.411247 -0.05290546 62.478474 62.38187
0001f0 ee a6 79 42 63 2c 79 42 06 8c 10 be 91 3a 7a 42
       62.413017 62.293346 -0.14115915 62.557194

layer2.weight f4 [128, 128, 3, 3]
000000 e6 60 75 42 fb d6 75 42 96 e8 75 42 d1 a1 75 42
       61.344627 61.45994 61.477135 61.408024
000010 7a 38 76 42 5f 20 76 42 4d 93 75 42 14 37 76 42
       61.555153 61.531612 61.39385 61.553787
000020 cd 59 76 42 31 4f 75 42 f6 df 75 42 c3 0f 76 42
       61.587696 61.327335 61.46871 61.515392
000030 b1 9e 75 42 fa 14 76 42 f8 11 76 42 d3 af 75 42
       61.404972 61.520485 61.517548 61.421703
000040 90 45 76 42 bb 3d 76 42 a6 a6 75 42 23 15 76 42
       61.567932 61.560284 61.412743 61.52064
000050 2f f7 75 42 ae c8 75 42 d3 4a 76 42 d9 1b 76 42
       61.49139 61.445976 61.57307 61.527195
000060 10 ad 75 42 17 5b 76 42 78 91 76 42 d1 2f 75 42
       61.419006 61.588955 61.64206 61.296696
000070 8b dd 75 42 a1 cc 75 42 1b a0 75 42 8e 1a 76 42
       61.46635 61.449833 61.406353 61.525932
000080 65 13 76 42 df 70 75 42 bf 12 76 42 d5 75 76 42
       61.51894 61.360226 61.518307 61.61507
000090 d2 73 75 42 bd dd 75 42 a5 23 76 42 b9 b0 75 42
       61.363106 61.46654 61.53481 61.42258
0000a0 05 27 76 42 b7 1b 76 42 d2 b0 75 42 8c 4b 76 42
       61.538105 61.527065 61.422676 61.573776
0000b0 6b 58 76 42 67 4d 75 42 81 d5 75 42 5c 30 76 42
       61.586346 61.32559 61.4585 61.547226
0000c0 3c b6 75 42 76 1b 76 42 f6 16 76 42 1d ac 75 42
       61.427963 61.526817 61.522423 61.41808
0000d0 1b 3f 76 42 11 39 76 42 e2 3f 75 42 6f fe 75 42
       61.561626 61.55573 61.312386 61.49847
0000e0 71 c4 75 42 57 8a 75 42 a3 3a 76 42 64 0b 76 42
       61.441837 61.385098 61.557262 61.511124
0000f0 2d be 75 42 cc 2c 76 42 d2 45 76 42 af 3d 76 42
       61.43572 61.543747 61.568184 61.560238
000100 4f 6f 76 42 df 24 76 42 ad 70 76 42 67 9b 76 42
       61.6087 61.536007 61.610035 61.65176
000110 6f 6b 76 42 35 84 76 42 ed 9e 76 42 dc ab 76 42
       61.604916 61.62911 61.6552 61.66783
000120 2c a9 75 42 aa 08 76 42 4f 51 76 42 49 f4 75 42
       61.415207 61.50846 61.579403 61.48856
000130 4b 29 76 42 c7 47 76 42 27 19 76 42 3d 60 76 42
       61.540325 61.570095 61.524563 61.593983
000140 35 45 76 42 fd 6b 76 42 c3 6a 76 42 ee a7 76 42
       61.567585 61.605457 61.60426 61.663994
000150 23 c2 76 42 49 94 76 42 b1 c2 76 42 43 5e 76 42
       61.689587 61.64481 61.69013 61.592052
000160 d1 ed 76 42 63 88 76 42 2f a5 76 42 75 aa 76 42
       61.732243 61.63319 61.661312 61.666462
000170 a1 21 76 42 85 cb 76 42 39 2e 77 42 57 ae 76 42
       61.53284 61.69875 61.79514 61.670254
000180 91 a0 76 42 3a ac 76 42 4c 2e 77 42 d4 15 76 42
       61.656803 61.66819 61.79521 61.521317
000190 b8 fa 76 42 48 a8 76 42 35 a7 76 42 c7 45 77 42
       61.744843 61.664337 61.66329 61.818142
0001a0 10 a0 76 42 89 9d 76 42 93 91 76 42 51 ec 76 42
       61.65631 61.653843 61.642162 61.730778
0001b0 e6 ac 75 42 7f 17 76 42 dc 0f 76 42 65 02 76 42
       61.418846 61.522945 61.515488 61.50234
0001c0 e9 4d 76 42 b0 40 76 42 59 15 76 42 66 4f 76 42
       61.576084 61.56317 61.520847 61.577538
0001d0 4c 89 76 42 9f f3 75 42 af 8d 76 42 31 2e 76 42
       61.63408 61.48791 61.638363 61.54511
0001e0 75 21 76 42 bb 7f 76 42 b9 5f 76 42 ba 34 76 42
       61.532673 61.624737 61.59348 61.55149
0001f0 d4 77 76 42 2d 4c 76 42 66 37 75 42 d4 be 75 42
       61.61702 61.57439 61.3041 61.436356
000200 92 02 76 42 49 a7 75 42 a3 1a 76 42 19 0e 76 42
       61.50251 61.413364 61.526012 61.513767
000210 2e 9e 75 42 6e 25 76 42 63 30 76 42 c7 03 75 42
       61.404472 61.536552 61.547253 61.25369
000220 51 b9 75 42 79 d2 75 42 0f 51 75 42 0c 04 76 42
       61.430973 61.45554 61.32916 61.503952
000230 2c 09 76 42 af 65 75 42 f0 0a 76 42 7f 2a 76 42
       61.508957 61.3493 61.51068 61.5415
000240 4c 84 75 42 1b e9 75 42 c5 17 76 42 dd b5 75 42
       61.379196 61.477642 61.523212 61.4276
000250 24 1c 76 42 e7 21 76 42 dc a6 75 42 f1 44 76 42
       61.52748 61.533108 61.41295 61.567326
000260 a9 57 76 42 d9 04 75 42 2e cd 75 42 b4 d6 75 42
       61.585606 61.254734 61.45037 61.45967
000270 75 55 75 42 56 0c 76 42 75 f8 75 42 58 4f 75 42
       61.333454 61.512047 61.492634 61.327484
000280 13 f8 75 42 5d 01 76 42 dd 45 75 42 b4 bf 75 42
       61.49226 61.50133 61.318226 61.43721
000290 ee e9 75 42 03 77 75 42 77 1b 76 42 ad f3 75 42
       61.478447 61.366222 61.52682 61.487965
0002a0 97 69 75 42 40 1d 76 42 cc 4c 76 42 ef 4c 75 42
       61.353115 61.528564 61.574997 61.32513
0002b0 8e be 75 42 6a fb 75 42 7c 9a 75 42 9e 17 76 42
       61.43609 61.49552 61.400864 61.523064
0002c0 ff 11 76 42 bc 88 75 42 76 28 76 42 9c 58 76 42
       61.517574 61.38353 61.539513 61.586533
0002d0 9e 1a 21 bb 78 52 d8 3b 3f 6f 12 bc 41 65 1e 3c
       -0.0024582515 0.006601628 -0.008937656 0.0096676955
0002e0 23 37 94 bb 7f 05 e8 3b 11 6f e0 bb 01 6e c5 3a
       -0.0045231744 0.0070807333 -0.0068491776 0.0015062691
0002f0 04 ce 17 3b 94 59 76 42 e6 65 76 42 d9 c6 76 42
       0.0023163566 61.58748 61.59951 61.694187
000300 54 90 76 42 2f a9 76 42 33 84 76 42 a2 3b 76 42
       61.640945 61.66522 61.6291 61.558235
000310 e8 cb 76 42 66 7b 76 42 ef d4 75 42 92 d4 76 42
       61.699127 61.620506 61.457943 61.70759
000320 11 21 76 42 3d b3 75 42 7a 08 77 42 29 8a 76 42
       61.53229 61.425037 61.758278 61.634922
000330 db 60 76 42 04 c3 75 42 16 dd 76 42 7f f5 74 42
       61.594585 61.440445 61.715904 61.239742
000340 e9 d5 75 42 4c c6 75 42 0e 8a 75 42 5b 0c 76 42
       61.458897 61.44365 61.38482 61.512066
000350 d2 0d 76 42 f9 5b 75 42 8e f4 75 42 3d 35 76 42
       61.513496 61.339817 61.488823 61.55199
000360 3b 43 76 42 1e 61 76 42 3f a1 76 42 ca 62 76 42
       61.565655 61.59484 61.657467 61.596474
000370 07 6d 76 42 e6 6c 76 42 8f 42 76 42 e6 a8 76 42
       61.606472 61.606346 61.565 61.66494
000380 54 89 76 42 9e 58 75 42 5d f7 75 42 bd 1a 76 42
       61.63411 61.33654 61.491566 61.52611
000390 a8 aa 75 42 1a 20 76 42 02 29 76 42 05 c4 75 42
       61.416656 61.53135 61.540047 61.441425
0003a0 ed 35 76 42 44 37 76 42 0b 28 75 42 7b dc 75 42
       61.55266 61.55397 61.289104 61.465313
0003b0 29 f7 75 42 aa 6e 75 42 fa 13 76 42 f1 08 76 42
       61.491367 61.35807 61.51951 61.50873
0003c0 eb a0 75 42 b1 22 76 42 91 2d 76 42 9b de 75 42
       61.407146 61.53388 61.5445 61.46739
0003d0 d9 5f 76 42 9f 66 76 42 9d 4e 76 42 e3 62 76 42
       61.5936 61.600216 61.57677 61.59657
0003e0 22 2a 76 42 be 21 76 42 be 96 76 42 08 71 76 42
       61.541145 61.53295 61.64721 61.610382
0003f0 93 cc 75 42 71 51 76 42 81 50 76 42 79 4e 76 42
       61.44978 61.579533 61.578617 61.576633

layer2.bias f4 [128]
000000 ee 9e 77 42 cc 88 78 42 7c 01 78 42 26 dd 79 42
       61.905205 62.13359 62.00145 62.465965
000010 c5 25 32 bc 8b 22 79 42 bd 0a 79 42 fa fe 76 42
       -0.010873263 62.283733 62.260487 61.749
000020 5f 74 0d 3c d9 78 78 42 e4 c3 b7 bb 1a 0e 79 42
       0.008633702 62.118015 -0.005608069 62.26377
000030 6d 7f d4 3b ef 93 78 42 d9 99 c5 3a 04 8d 78 42
       0.006484917 62.144466 0.0015075757 62.13771
000040 68 88 7a 42 95 25 79 42 87 ad 78 42 49 1c 79 42
       62.63321 62.2867 62.16946 62.277622
000050 17 4f dc 3b 81 51 f2 ba bc aa 78 42 de ea 78 42
       0.0067232954 -0.0018487425 62.166733 62.229362
000060 77 78 79 42 a5 c5 78 42 86 07 8d 3b f6 a9 1e bc
       62.36764 62.193012 0.0043038754 -0.0096840765
000070 c0 81 1f 3c 6b 68 a2 bb 27 d2 78 42 2b 2b 87 bb
       0.009735525 -0.0049562952 62.205227 -0.004125019
000080 7d 2b 77 42 bc ac 78 42 42 2f 76 42 f2 d9 78 42
       61.79247 62.168686 61.54615 62.212837
000090 3e db 78 42 03 43 79 42 b6 f9 76 42 b0 f2 78 42
       62.214104 62.31544 61.74386 62.237
0000a0 71 99 7a 42 e1 0c 79 42 fc c7 78 42 c1 49 79 42
       62.649845 62.262577 62.195297 62.322025
0000b0 5f f3 78 42 0f 43 79 42 96 d3 78 42 0a ac 78 42
       62.237667 62.315487 62.206627 62.168007
0000c0 d8 62 79 42 f7 9f 78 42 d6 e8 78 42 a4 bc 78 42
       62.346527 62.156216 62.22738 62.18422
0000d0 b3 d6 77 42 ec 6f 78 42 8c e6 78 42 a4 37 b1 3b
       61.959667 62.1093 62.225143 0.005408244
0000e0 d7 39 79 42 58 4c 79 42 37 fd 98 bb 5c 7d 25 bc
       62.306484 62.324554 -0.0046688574 -0.010100689
0000f0 c9 30 21 3c 68 6f 78 42 d0 9d 78 42 3c 68 78 42
       0.009838291 62.108795 62.154114 62.10179
000100 81 03 7a 42 c0 e4 31 bc ef e0 78 42 be e4 78 42
       62.50342 -0.010857761 62.21966 62.22338
000110 9f bf 78 42 ba a6 78 42 7f fc 78 42 fc c2 0b 3c
       62.18713 62.16282 62.24658 0.008530375
000120 fe c8 78 42 b9 98 7a 42 de 2f 79 42 8a 41 79 42
       62.19628 62.649143 62.296745 62.314003
000130 74 f7 77 42 7e d5 78 42 bf c4 78 42 72 c9 ce bb
       61.991653 62.20849 62.192135 -0.0063106352
000140 24 eb 78 42 ed f3 bb 3b ff 5b 11 3c 22 ad 78 42
       62.22963 0.0057358653 0.008872031 62.169075
000150 a3 af 78 42 8c 1c 78 42 99 de 79 42 25 68 17 bb
       62.17152 62.027878 62.46738 -0.0023102846
000160 22 2b 78 42 4b e3 78 42 77 1c 91 3b b5 d9 0e bc
       62.04212 62.221966 0.004428442 -0.008718898
000170 7a 1b 79 42 aa 91 7a 42 c0 9c 78 42 b2 55 78 42
       62.276833 62.64225 62.153076 62.083687
000180 ec c0 78 42 c3 c7 78 42 66 31 c2 3b 1c c7 78 42
       62.1884 62.19508 0.005926299 62.194443
000190 8b c8 76 42 78 f8 89 bb d9 d5 21 3b ae 14 78 42
       61.695843 -0.004210528 0.0024694114 62.020195
0001a0 dd 1c 1e bc 8c e9 76 42 2a 01 79 42 96 1a 79 42
       -0.009650436 61.728073 62.251137 62.275963
0001b0 03 49 1a 3c 89 a5 21 3b 4f 5c 79 42 11 05 79 42
       0.009416821 0.0024665317 62.340145 62.254948
0001c0 38 ad 3e 3b f2 5f 79 42 2b 5b 0a 3c ce 25 79 42
       0.0029094946 62.343697 0.008444588 62.28692
0001d0 9d 88 78 42 bd c6 05 3c d9 6d 7a 42 1c a3 78 42
       62.13341 0.008165059 62.607273 62.159286
0001e0 2f 97 78 42 8d 94 7a 42 5c 20 79 42 37 f5 78 42
       62.14764 62.64507 62.2816 62.239468
0001f0 fb 30 79 42 6f 95 7a 42 09 04 79 42 18 fd 76 42
       62.297832 62.64593 62.25394 61.74716

output.weight f4 [4, 128]
000000 e7 d2 6b c2 52 45 6c c2 15 de 6c c2 4a 9a 6e c2
       -58.95596 -59.067696 -59.216877 -59.650673
000010 fc d2 7a bc bf 88 6e c2 4a ab 6c c2 ca 19 6d c2
       -0.015309092 -59.63354 -59.167274 -59.275185
000020 ac 68 83 ba b3 d9 6b c2 0c c3 27 bc c8 39 6e c2
       -0.0010025701 -58.962597 -0.010239374 -59.556427
000030 0c 76 a8 3c e1 69 6b c2 8a de d3 bc a3 e2 6b c2
       0.020564102 -58.853397 -0.02586295 -58.971325
000040 8f eb 6f c2 8a 66 6f c2 57 77 6b c2 a5 89 6d c2
       -59.980038 -59.850136 -58.866543 -59.38442
000050 b8 ec 94 3b a5 6e f3 bc 27 80 6c c2 ed f9 6b c2
       0.0045448206 -0.029715845 -59.12515 -58.99407
000060 14 58 6e c2 31 50 6f c2 b5 a2 f4 bc 9c b6 ec 3a
       -59.586014 -59.828312 -0.029862741 0.0018059793
000070 1a 71 a0 bc 3a 79 4c 3a 8c 5e 6e c2 18 f4 a3 bc
       -0.019585181 0.00078000466 -59.59233 -0.020013854
000080 55 f4 6c c2 98 1e 6c c2 2c af 6a c2 7c 98 6b c2
       -59.238605 -59.029877 -58.671066 -58.89891
000090 9a 8e 6b c2 77 7b 6e c2 d3 16 6d c2 e1 83 6f c2
       -58.88926 -59.62057 -59.27229 -59.878788
0000a0 a4 5d 70 c2 cc 66 6f c2 5a 6b 6b c2 e7 05 6f c2
       -60.091446 -59.850388 -58.854836 -59.755764
0000b0 b9 8e 6f c2 91 90 6e c2 d7 68 6b c2 be dd 6b c2
       -59.889378 -59.64118 -58.852383 -58.966545
0000c0 7f 38 6f c2 aa 2a 6f c2 5e 4e 6f c2 76 50 6b c2
       -59.805172 -59.791664 -59.82653 -58.828575
0000d0 24 b4 6c c2 3a e0 6b c2 e5 82 6c c2 15 68 e9 3b
       -59.17592 -58.96897 -59.127827 0.0071230032
0000e0 d1 5e 6f c2 c5 44 6f c2 30 15 bf bc cf bb a0 bc
       -59.842594 -59.817158 -0.023325533 -0.019620804
0000f0 36 fb a2 bc 6d 5e 6b c2 2e 4f 6b c2 b5 c6 6c c2
       -0.019895177 -58.842213 -58.827324 -59.19405
000100 c6 7b 6e c2 31 23 d1 bb b3 8e 6c c2 40 94 6b c2
       -59.620872 -0.006382369 -59.139355 -58.894775
000110 96 82 6b c2 0d 0a 6c c2 37 3c 6c c2 0e 43 dd 3b
       -58.877525 -59.009815 -59.058804 0.0067523783
000120 f8 95 6c c2 c6 13 70 c2 2f 06 6f c2 9c 0f 6e c2
       -59.146454 -60.01931 -59.75604 -59.515244
000130 48 0c 6d c2 39 36 6c c2 f6 36 6c c2 5e e6 d2 bc
       -59.261993 -59.05295 -59.053673 -0.025744613
000140 98 41 6c c2 f1 49 7e bc a1 cd e3 bc f1 69 6b c2
       -59.064056 -0.015520559 -0.027808012 -58.85346
000150 64 37 6b c2 57 b1 6b c2 bf 4f 6e c2 7d 52 68 bb
       -58.804092 -58.923183 -59.577877 -0.0035449557
000160 06 bb 6c c2 e7 9e 6b c2 3f 49 87 bc 26 e3 a6 bc
       -59.18264 -58.905178 -0.016514419 -0.020371985
000170 7e 35 6e c2 87 6c 70 c2 c3 9b 6c c2 01 79 6c c2
       -59.55224 -60.105984 -59.15211 -59.118168
000180 b0 62 6c c2 7a 20 6c c2 95 4a 43 bb d2 4c 6b c2
       -59.096375 -59.031715 -0.0029799093 -58.82502
000190 6f b0 6c c2 83 aa db bc 85 41 b6 bb 15 e7 6c c2
       -59.1723 -0.026814705 -0.0055620098 -59.225666
0001a0 30 17 ce 3b 04 d0 6c c2 2a 11 6c c2 cb 3a 6f c2
       0.0062893853 -59.20314 -59.01676 -59.807415
0001b0 0f 9b e0 3b 85 54 bb bc 6d fa 6e c2 4d 28 6c c2
       0.006854422 -0.02286745 -59.744556 -59.039356
0001c0 88 ef f3 bc af b9 6e c2 1a a1 f1 3c 80 71 6e c2
       -0.029777303 -59.68133 0.029495765 -59.61084
0001d0 6d 36 6c c2 c9 a0 e6 3a ea 97 70 c2 d3 1d 6b c2
       -59.05315 0.0017595525 -60.148354 -58.779125
0001e0 e7 25 6b c2 be 58 70 c2 7e 7a 6e c2 eb ff 6b c2
       -58.787014 -60.086662 -59.61962 -58.99992
0001f0 b7 02 6f c2 c9 12 70 c2 c5 c8 6e c2 05 2b 6d c2
       -59.75265 -60.018345 -59.696064 -59.29201
000200 01 a4 6c c2 1c 35 6d c2 0a d4 6c c2 af 69 6f c2
       -59.16016 -59.301865 -59.20707 -59.853207
000210 f1 3b 5a 38 7a 25 6d c2 05 05 6e c2 f3 ab 6a c2
       5.2031075e-05 -59.2866 -59.5049 -58.66792
000220 8d d0 0f 3c b8 4d 6d c2 71 73 ee bc c2 c2 6c c2
       0.00877775 -59.325897 -0.029107781 -59.190193
000230 67 0d c1 3c 07 0f 6e c2 80 fa 8f bc aa 50 6d c2
       0.023565961 -59.514675 -0.017575502 -59.328773
000240 6e b6 6f c2 46 e8 6c c2 30 55 6d c2 29 d3 6e c2
       -59.928154 -59.22683 -59.33319 -59.70621
000250 f1 62 b4 bb f4 cc fc bc 6a 45 6d c2 8c b6 6d c2
       -0.005504959 -0.030859448 -59.317787 -59.42827
000260 60 5c 6f c2 ed a0 6c c2 85 04 65 3c 3f 10 da bc
       -59.84021 -59.157154 0.013978128 -0.026619075
000270 21 38 b1 3b b6 83 a1 bc 54 c9 6c c2 eb 80 bc bb
       0.0054083024 -0.019716125 -59.19661 -0.005752673
000280 a2 92 6a c2 24 91 6d c2 d8 be 6a c2 a4 41 6e c2
       -58.643196 -59.39174 -58.68637 -59.564102
000290 99 46 6d c2 27 07 6d c2 3c c5 6a c2 30 a4 6c c2
       -59.318943 -59.256985 -58.69261 -59.16034
0002a0 5d c9 6f c2 74 bb 6c c2 f7 b4 6d c2 4c b3 6c c2
       -59.946644 -59.18306 -59.426723 -59.175095
0002b0 e1 87 6c c2 39 c2 6c c2 5c f4 6d c2 4f 8c 6d c2
       -59.132694 -59.18967 -59.488632 -59.38702
0002c0 dd cb 6c c2 0e 9c 6c c2 9e ae 6c c2 05 a7 6d c2
       -59.199085 -59.152397 -59.170525 -59.413105
0002d0 10 b0 6c c2 c0 44 6d c2 ac ee 6d c2 65 e1 e0 3b
       -59.171936 -59.31714 -59.483078 0.0068628066
0002e0 88 be 6c c2 8c 82 6c c2 7e e9 a0 3b 93 42 a2 bc
       -59.186066 -59.127487 0.004910647 -0.019807136
0002f0 5f 43 36 3c 86 08 6d c2 7c 77 6d c2 2f 11 6d c2
       0.011124461 -59.258324 -59.366684 -59.26678
000300 51 49 6f c2 8f 7f eb 3c 07 d2 6d c2 53 16 6e c2
       -59.821598 0.028747348 -59.455105 -59.5218
000310 b8 18 6e c2 2c 66 6d c2 d9 bc 6d c2 1a 62 a7 bc
       -59.52414 -59.349777 -59.43442 -0.02043252
000320 fb b7 6d c2 0f 21 70 c2 c4 9a 6c c2 8b fc 6c c2
       -59.42967 -60.032284 -59.15114 -59.246624
000330 c5 d4 6c c2 ae d2 6d c2 dc d4 6d c2 a1 f9 ee bc
       -59.207783 -59.45574 -59.45787 -0.029171767
000340 f3 d4 6d c2 a2 2c 59 bc ad 20 f0 bc f2 31 6d c2
       -59.45796 -0.01325527 -0.029312456 -59.298775
000350 ab 5b 6d c2 8d e4 6c c2 17 8f 6f c2 7b 09 e4 3c
       -59.33952 -59.223194 -59.889736 0.027836552
000360 a5 f2 6c c2 13 20 6e c2 68 d8 ac 3b e4 1a a9 bc
       -59.236958 -59.531322 0.005274821 -0.020642705
000370 7c e7 6c c2 ef 84 6f c2 16 40 6d c2 dc 13 6d c2
       -59.22606 -59.879818 -59.312584 -59.269394
000380 db 75 6d c2 4a ea 6d c2 4c 01 2b bc b7 a0 6d c2
       -59.365093 -59.478798 -0.010437321 -59.406948
000390 c1 73 6a c2 30 17 3a bc 81 f7 b8 bc 6a e4 6c c2
       -58.61304 -0.011358067 -0.022578957 -59.22306
0003a0 73 4c 67 bc 08 82 6a c2 10 04 6e c2 3e 7a 6c c2
       -0.014117348 -58.626984 -59.503967 -59.119377
0003b0 1b 9c 9a bc 8b b2 fd bc 14 bf 6c c2 ba f9 6d c2
       -0.018873265 -0.030968925 -59.1866 -59.493874
0003c0 9b 0f 2b 3c d5 e8 6c c2 6d da f3 3c db cd 6c c2
       0.010440732 -59.227375 0.02976724 -59.20103
0003d0 56 3c 6d c2 90 78 9d bc 98 58 6f c2 3f 43 6d c2
       -59.30892 -0.019222528 -59.836517 -59.31567
0003e0 36 55 6d c2 4b 01 70 c2 be bf 6c c2 76 db 6d c2
       -59.333214 -60.001263 -59.18725 -59.464317
0003f0 ee b5 6c c2 83 15 70 c2 63 a7 6c c2 18 66 6a c2
       -59.177666 -60.021008 -59.163464 -58.5997

output.bias f4 [4]
000000 bf a2 d1 c1 36 dc cf c1 fd 45 d0 c1 10 97 d9 c1
       -26.204466 -25.982525 -26.034174 -27.198761
