sofos/_2048/training_saves/with_stop_when_illegal_move/policy_network_v2_5000_57.65340795522686.pt (torch, 598034 bytes, 6 tensors)

input.weight f4 [128, 1, 2, 2]
000000 b3 93 83 be 9a 63 10 3e 4d f1 01 3f a3 ec 04 bf
       -0.25698623 0.14100495 0.5075882 -0.5192358
000010 49 b8 ee 3e b9 5e 13 3f cd ad 5e 3e 55 60 5e 3e
       0.46624973 0.5756641 0.21745987 0.21716435
000020 fb 03 83 3d d9 99 2a bd 40 2a c8 bd 05 4d df bd
       0.063972436 -0.041650627 -0.097736835 -0.10903362
000030 66 fb cb be 0c ee ed be 81 c6 8d bd 7a b2 da be
       -0.3984024 -0.46470678 -0.06922627 -0.42714292
000040 e7 77 0b bc c1 89 14 3f f7 dc d9 be 2d 48 2c 3f
       -0.008512474 0.58022696 -0.42551395 0.6729763
000050 3b e9 ac bc e0 19 18 3e f6 b6 11 be 10 db d7 bd
       -0.021107307 0.1485362 -0.1422995 -0.1053983
000060 c5 13 20 be b5 30 67 3e 73 58 70 3e 73 46 ce bf
       -0.15632541 0.22577174 0.2347124 -1.6115249
000070 3b 74 10 3f 58 f6 f5 3e fa 36 02 3f 4e 69 e4 be
       0.56427354 0.48039508 0.5086514 -0.4461159
000080 6f c9 66 bb 18 88 a0 bb af 0f 85 bd 58 ad f6 bd
       -0.0035215279 -0.004899036 -0.06497132 -0.120447814
000090 f3 78 5f bd 28 dc 9e be 8d f8 a6 3d b2 6e db 3e
       -0.054558706 -0.3102734 0.08152876 0.4285789
0000a0 3b 0c ca 3d 49 65 31 bd b8 f3 d3 3e d3 50 eb 3e
       0.09865614 -0.043309484 0.4139688 0.459601
0000b0 c1 34 76 3d b0 05 c5 be 14 a2 c2 3d 68 34 38 be
       0.060108904 -0.38480902 0.0950357 -0.17988741
0000c0 11 d9 6e be 59 9d 93 3e 2e a6 8b bc 45 32 8b be
       -0.23324992 0.28830984 -0.017047014 -0.2718679
0000d0 1a 93 fb be 59 8d da 3e be 91 fa be cf fe e3 be
       -0.49135667 0.42685965 -0.48939317 -0.4453034
0000e0 03 c2 96 3d 8e 8d 23 3c 7d 6e a2 3e 90 d6 4b be
       0.073612235 0.00998248 0.3172492 -0.19906068
0000f0 b7 3c 13 3f d6 45 96 3b 3a 10 05 bf 14 22 21 3f
       0.5751452 0.004585962 -0.51977885 0.62942624
000100 f0 b6 6b 3d 84 7e 92 bd 85 41 bb 3e 6f 21 e8 3e
       0.05754751 -0.07153037 0.36573425 0.45338008
000110 45 96 b2 3e 83 4f f1 3e 80 97 7d be 9c 61 14 3f
       0.34880272 0.47130975 -0.24764824 0.5796144
000120 76 4f c2 3e 49 9c 50 3e 09 e8 ac be 8c fe 2c 3e
       0.3795125 0.20372118 -0.3377078 0.16893977
000130 73 55 9b 3e a2 71 36 bd ae ab 99 bd 80 a2 35 bf
       0.3033863 -0.044541962 -0.075034484 -0.7095108
000140 f7 b1 7f be 38 08 27 bd 6f 74 5e 3d 86 b0 c3 3e
       -0.24970232 -0.040779322 0.05431026 0.38220614
000150 6e e0 f2 bd 0f 5c ce 3e 46 47 13 bd 95 8d 27 bd
       -0.11859213 0.4030461 -0.035956644 -0.040906508
000160 d8 98 36 bd 17 f2 ce bd e1 2a ca be f0 55 83 bd
       -0.044579357 -0.10104769 -0.3948584 -0.06412876
000170 32 6b 2b 3f a4 df e5 3e 08 bd 41 3e 39 a9 b4 3e
       0.6696044 0.44897187 0.18919766 0.35285357
000180 e3 00 e6 3c 57 d0 c1 bc ff a0 08 bd 3c 0f c0 bd
       0.028076595 -0.023658914 -0.033356663 -0.09377906
000190 55 9d 4e 3d 8b ae 9d 3d 06 f0 3b be 6a b7 66 3d
       0.050443012 0.07699307 -0.1835328 0.05632726
0001a0 89 c0 36 3d a7 38 67 be 4f 28 aa 3d 69 99 74 bd
       0.04461721 -0.22580205 0.083084695 -0.059716616
0001b0 13 c8 a3 bd c8 5d 89 bf 4c 6b 92 be 6d 93 b0 3e
       -0.079971455 -1.0731745 -0.28597486 0.34487477
0001c0 f6 58 b0 3d d7 72 f4 3e f6 9f f4 3e da 73 94 be
       0.08610718 0.47743866 0.4777829 -0.28994638
0001d0 b0 9f db bd fe b3 ce 3a 08 90 0a bf e4 2f 3e 3f
       -0.10723817 0.0015770195 -0.54126024 0.74291825
0001e0 0e 1e 90 bd f5 c6 0f be 9f 90 8d bf 50 b4 60 3e
       -0.070369825 -0.1404074 -1.105976 0.21943784
0001f0 56 05 8a bd ef a3 f7 3c ee b7 f3 bd db 1e 0d bd
       -0.06739299 0.030229537 -0.11900316 -0.034453254
000200 28 43 bd bf 92 8b 87 3e 1b 18 87 3e 97 a1 af be
       -1.478612 0.2647367 0.2638558 -0.3430297
000210 77 ab 80 3e de 0e 57 3e 32 46 4a be 69 1c 42 be
       0.25130817 0.21001765 -0.1975334 -0.1895615
000220 35 54 34 3b fa 7a 13 bf 0c da 8d 3e ff ce d8 3d
       0.0027516012 -0.5760952 0.2770542 0.10586356
000230 1b e5 11 3d b6 ef 1f 3f de ae 43 be 6c 79 d6 bf
       0.035618883 0.62475145 -0.19109675 -1.6755805
000240 8f 9f 8b 3d 43 71 7b 3e 9c 58 cc bb a2 69 20 be
       0.06817543 0.24554925 -0.006236149 -0.15665296
000250 ec 99 e3 3e 3e 41 da 3e b7 55 29 be c4 ca b5 3e
       0.4445337 0.426279 -0.16536604 0.3550626
000260 70 30 8f be 16 01 6c be 91 49 ca be 17 a8 8a 3c
       -0.27966642 -0.23047289 -0.39509252 0.016925855
000270 a1 31 a1 be af 1f 95 3e 6a 4e 9f be 77 e4 f6 3e
       -0.31483176 0.29125735 -0.31114513 0.4822118
000280 0a 2f dd 3c 66 8e 0f bf ef ff 1a bc 2d 9d 30 3f
       0.026999969 -0.5607666 -0.009460433 0.6898983
000290 7e 85 bd bd c0 32 fe be 26 de ef bb 1f d2 35 3f
       -0.09253977 -0.49648094 -0.0073201833 0.71023744
0002a0 74 42 f6 bd 97 8a 83 3e b9 0e 0d 3e a9 ad 83 be
       -0.12024394 0.25691673 0.13775147 -0.2571843
0002b0 7c a6 bd bd 95 c8 9a bb fa 24 e7 3b ba 0a d3 bd
       -0.0926027 -0.0047236183 0.0070539685 -0.1030478
0002c0 01 a9 7b 3e a7 e5 a1 3e 76 44 1c 3f bf 2b 39 3f
       0.24576189 0.31620523 0.61041963 0.72332376
0002d0 ec 01 b2 be 46 97 03 bd 96 67 a3 bd 2b 74 ec 3e
       -0.3476709 -0.032126687 -0.07978742 0.4618238
0002e0 6a 35 16 3f 9a bc b7 be 3c f4 73 be 4a 50 c2 be
       0.58675253 -0.3588608 -0.23823637 -0.3795188
0002f0 fa 52 01 3b 28 27 5d 3f c2 10 e6 3a 69 ea 62 bf
       0.0019733296 0.8638787 0.0017552602 -0.8863893
000300 c3 fb da bc e2 31 d3 bd 59 8b 4d 3e af 46 a8 3e
       -0.026731377 -0.10312249 0.20072688 0.32866427
000310 81 75 c7 3e 3b 6f 0d 3f 7d 22 bb 3d cd 9f db 3e
       0.38956836 0.5524785 0.091374375 0.42895356
000320 6c 27 af be 12 2e 1a be a2 0a bc bd 36 d3 a8 be
       -0.34209764 -0.15056637 -0.091817155 -0.3297364
000330 69 b9 80 3d 46 93 a7 3e 24 2d cf 3d 87 49 2f 3e
       0.06285364 0.32729548 0.10116032 0.17117892
000340 93 45 6b be d0 9f f8 3e a1 a2 b1 3e eb d8 de 3e
       -0.22975759 0.48559427 0.34694389 0.4352487
000350 b5 27 33 3e ee f4 b2 3e a2 6c 96 be 00 35 2c 3e
       0.17495616 0.34952492 -0.29379755 0.16817093
000360 d2 ed f9 bd c2 0e bc 3e 08 fc c7 bd 13 d2 8d 3d
       -0.12203564 0.3673001 -0.09764868 0.06924834
000370 7b 92 22 3f d5 6e b5 be 22 75 db be 96 43 2d bf
       0.6350476 -0.3543612 -0.42862803 -0.6768125
000380 51 5c 75 be c7 69 25 3e 62 cd b9 3d 62 11 55 3e
       -0.23960997 0.16153632 0.09072377 0.20807412
000390 33 e8 a1 3e 08 8a 10 be 93 0f 39 be a8 3f 71 be
       0.31622466 -0.14115155 -0.18072347 -0.23559439
0003a0 ce 7a 13 3e c6 e9 73 bd d7 0a d6 bd e1 8e 13 be
       0.14402315 -0.059549116 -0.10451286 -0.14409973
0003b0 89 24 67 3c b8 9f b0 3e 44 32 5f 3e ab 2a 23 be
       0.014107832 0.34496856 0.21796519 -0.15934245
0003c0 e1 5c 6b bd 20 a9 49 3e 8b 98 c5 bc fb 53 2e be
       -0.057461623 0.19693422 -0.02412059 -0.17024224
0003d0 3d 88 a8 3d 83 55 6a 3e ae 64 cf be 59 8a bf bd
       0.082291104 0.22884183 -0.405065 -0.093525596
0003e0 ef 31 6b 3e 7b 71 b4 3d 25 aa 3f bd ec d9 5b be
       0.22968267 0.08810707 -0.04679312 -0.2146985
0003f0 66 e2 0e bd 8d 21 a7 bd 26 a8 c2 bd 52 a2 95 3e
       -0.03488388 -0.08160696 -0.09504728 0.29225403

input.bias f4 [128]
000000 b2 a4 0a 3f ea 8c de be 77 c6 80 3f b2 84 cb be
       0.54157555 -0.43466884 1.0060567 -0.39749676
000010 7e 11 fd be d2 18 7c 3f cb 1c ce 3e e8 69 09 bd
       -0.49427408 0.9847537 0.40256342 -0.033548266
000020 c0 ec 74 3f b8 d7 3e 3f 2a 67 31 3f 85 fb c4 3e
       0.9567375 0.7454791 0.6929804 0.38473144
000030 1f 31 64 3f e9 52 fb 3e a1 a2 49 3f eb ea 60 be
       0.8913745 0.49086693 0.78763777 -0.21964614
000040 61 1e 77 3f 56 3b c0 be 70 db 84 3f 64 91 09 3f
       0.9653073 -0.3754527 1.0379467 0.53737473
000050 c6 c5 4c 3f c7 c2 6b 3f fb 11 96 be 09 24 da be
       0.7998928 0.9209408 -0.29310593 -0.42605618
000060 ee 5c 4f 3f 3f 62 69 3f ff d3 5e 3f 45 e4 09 3f
       0.81001174 0.91165537 0.8704223 0.53863937
000070 0c 15 c1 be 84 b7 ce be 46 cb 2a 3f 1f ca 62 3f
       -0.3771137 -0.40374386 0.6671642 0.8858966
000080 66 18 00 3f b1 a6 38 3f b8 63 f1 3e 4f 29 9b 3e
       0.5003723 0.7212935 0.47146392 0.30304953
000090 be 18 30 3f 00 fc c1 be ba 78 28 be 53 66 28 3f
       0.68787754 -0.37887573 -0.16452304 0.65781134
0000a0 c5 34 84 be 98 78 d7 be c1 c2 8e 3f fc fd 5d 3f
       -0.2582151 -0.42084193 1.1153184 0.86715674
0000b0 8b 01 51 be b0 30 44 3f e3 bf ce 3e 49 47 31 3d
       -0.20410745 0.7663679 0.40380773 0.043280873
0000c0 01 50 2a 3f bf 6a 05 bf 8c eb d2 be 2b da 77 3f
       0.66528326 -0.52116007 -0.41195333 0.9681727
0000d0 90 82 f9 be ca 10 78 3f ec 24 88 3f 9f 4b cd bd
       -0.48732424 0.9690062 1.0636268 -0.10024189
0000e0 1b ef 51 3f 46 e9 25 3f 4b 73 8f 3f 75 97 4a 3f
       0.8200547 0.6480907 1.120706 0.79137355
0000f0 46 91 71 3f 13 52 67 3f 3f b0 89 3f bc 87 22 3f
       0.94362295 0.9035961 1.0756911 0.63488364
000100 18 ae 7e 3f 2c a9 42 3f d0 b0 4d 3f 6b 5f 7a 3d
       0.99484396 0.76039386 0.8034792 0.061126154
000110 df 3d 64 3f 95 17 e2 be 56 85 8c 3f 82 86 90 3d
       0.8915691 -0.44158617 1.0978191 0.07056905
000120 08 db 04 3f 51 59 86 be 40 7b 61 3f 5a 45 0b be
       0.51896715 -0.26240018 0.8807869 -0.13600674
000130 da 00 15 3f b9 d7 0e 3f 40 11 e0 be fe 6c 05 bf
       0.58204424 0.55797917 -0.4376316 -0.52119434
000140 9c 00 50 3f 55 04 7d bd 3a f9 db 3e 36 39 cc be
       0.8125093 -0.06177171 0.42963582 -0.39887398
000150 67 95 03 bf bf d9 17 3f 54 4c 62 3f 57 ce db be
       -0.51399845 0.5931663 0.8839772 -0.42930862
000160 a6 3e 8c 3f e4 ef 5c 3f 89 2a 4b 3f 55 ab 69 3f
       1.0956619 0.86303544 0.7936178 0.91277057
000170 98 e6 c5 3e a4 b8 de 3e a0 f6 28 3f 8b 69 24 be
       0.38652492 0.43500245 0.6600132 -0.16055886
000180 01 e2 6e 3f e7 08 8e 3f b4 fe 4d 3f f6 cb fd bd
       0.93313605 1.1096467 0.8046677 -0.12392418
000190 ab 52 35 3f e0 e3 7e 3f 7d c6 6e 3f 79 b3 16 be
       0.70829266 0.9956646 0.9327162 -0.14716901
0001a0 d5 19 0e 3f 00 68 24 3f 9a f3 f6 be f0 8f 8a 3f
       0.55508167 0.6422119 -0.48232728 1.0825176
0001b0 21 84 60 3f 4a 0d 06 3f b2 3a 00 3f fe 02 7e 3f
       0.8770161 0.5236403 0.5008956 0.99223316
0001c0 10 33 f0 be 09 c6 6b 3f da 9b 86 3f 69 44 82 3f
       -0.46913958 0.9209905 1.0516312 1.0177127
0001d0 c5 db 25 bf 42 e0 31 3f 3d 95 fe be bb 62 b6 be
       -0.64788467 0.69482815 -0.49723235 -0.356222
0001e0 da 56 6c 3f 29 ce 29 3f 65 39 1b 3f d2 83 28 be
       0.92320025 0.663302 0.6063445 -0.16456535
0001f0 39 ed fe be 01 4b c7 bd 0a a2 19 3e 65 42 cb be
       -0.49790362 -0.09731103 0.15003219 -0.39699093

layer2.weight f4 [128, 128, 3, 3]
000000 e3 cc 03 3e 9a 83 64 3e 0b c5 cc 3e 25 d5 32 3e
       0.12871127 0.22315827 0.39994082 0.1746412
000010 95 69 6d 3e 27 42 a4 3e 9f 02 a5 3e c4 9b 0e 3f
       0.23184808 0.3208172 0.32228562 0.5570643
000020 e2 d9 69 3e d5 e5 a7 be 73 42 c6 be 42 e1 d8 be
       0.22837022 -0.32792535 -0.38722572 -0.42359358
000030 1b 2d ce be 23 50 7d be 61 1e b0 be 38 3c 8f be
       -0.40268788 -0.24737601 -0.34398177 -0.2797563
000040 be 52 75 be 8f 82 ba be 81 f8 ed 3e a2 26 f8 3e
       -0.23957345 -0.36427733 0.46478656 0.48466974
000050 7d 12 12 3f 2b a0 ea 3e bf 81 ed 3e 1f 47 1b 3f
       0.5705946 0.45825323 0.4638805 0.606554
000060 8d a6 12 3f 12 b1 15 3f 75 29 2e 3f b6 22 ba 3c
       0.57285386 0.5847331 0.6803201 0.02272163
000070 0b e0 1d 3c 51 29 a1 3c 90 1e 05 bb 62 b5 be 3b
       0.009635936 0.019673022 -0.0020312406 0.0058199624
000080 8d 77 ae 3c e5 25 31 bc aa 53 08 3c d7 31 77 39
       0.02129724 -0.010812257 0.008320728 0.00023574322
000090 15 33 b6 be 8a 0a 94 be 3c 54 e6 be 37 d6 50 be
       -0.35585847 -0.2891429 -0.4498614 -0.20394216
0000a0 5a f4 34 be 43 bc 03 bf 8d 2a 8e be b7 5b c9 be
       -0.17671338 -0.5145914 -0.2776684 -0.39327785
0000b0 b8 ec c0 be 21 38 f1 3e 38 ea e4 3e ed f7 d9 3e
       -0.37680602 0.47113135 0.44709945 0.42571965
0000c0 06 32 fd 3e 60 83 cd 3e ed 1c ea 3e f9 74 24 3f
       0.49452227 0.40139294 0.45725194 0.64240986
0000d0 e2 f9 13 3f 17 5a 13 3f 59 11 a2 3e 1c c4 85 3e
       0.57803166 0.5755934 0.3165386 0.26126182
0000e0 a7 a6 ca 3e 9c a7 98 3e a5 30 0e 3e ae ba 48 3e
       0.3958027 0.29815376 0.13885744 0.19602463
0000f0 40 13 6c 3e ab 53 9e 3e 5e 5e 10 3f f1 74 82 be
       0.23054218 0.3092321 0.5639399 -0.25479844
000100 7a 42 c0 be 95 0a ad be 23 20 61 be 76 f6 29 be
       -0.37550718 -0.33797136 -0.21984915 -0.16597924
000110 3c e1 1a be 10 8a 07 be a1 c2 49 bd 3c e9 07 be
       -0.15124983 -0.1323626 -0.04925788 -0.13272566
000120 5d df e6 3e 10 6c ec 3e 31 4f 14 3f f5 3c e3 3e
       0.45092288 0.46176195 0.57933336 0.44382444
000130 70 46 ef 3e 0b 8f 1c 3f 7d 73 0c 3f 9a 67 1d 3f
       0.46733427 0.61155766 0.5486372 0.6148621
000140 55 00 44 3f f3 27 db 3e 22 39 e1 3e 22 54 b2 3e
       0.76563007 0.42803916 0.439889 0.34829813
000150 8c 25 c8 3e 42 85 98 3e 44 23 66 3e 60 32 4d 3e
       0.39091146 0.29789168 0.2247439 0.20038748
000160 3f 3d 0d 3e d5 95 52 3e 9a 4f 4b 3e 71 97 ff 3d
       0.13792895 0.20564969 0.19854584 0.12480057
000170 64 af 35 3d ae 24 2d 3e c7 dd 27 3e f2 6e 04 3d
       0.04435672 0.16908523 0.16393195 0.03233237
000180 0f 0e 85 3d 58 fe 8f 3c 01 84 07 bc a2 36 a5 3c
       0.06496822 0.017577335 -0.008271218 0.020167653
000190 65 4c ed 3d af a2 25 be e1 49 32 be 74 67 76 bd
       0.11586837 -0.1617534 -0.17410995 -0.060157254
0001a0 28 5a 91 bd 73 66 73 be fe 5c 63 bd 19 87 0c be
       -0.07097274 -0.2376955 -0.055508606 -0.1372341
0001b0 39 ef de 3e 75 4d c5 3e b1 ce cf 3e 5f b1 d9 3e
       0.43541887 0.38535658 0.4058738 0.42518136
0001c0 8b 9b c3 3e c4 f8 d1 3e 64 2e f6 3e e9 bb 00 3f
       0.38204607 0.41010106 0.48082268 0.5028673
0001d0 8f 3b a2 3e 56 20 a3 3e e7 c7 72 3e bc cc 20 3e
       0.31686065 0.31860608 0.23709069 0.157031
0001e0 30 6a a4 3d a1 06 3e 3e a2 9b c1 3d 88 41 bc 3e
       0.08028066 0.18557216 0.09453513 0.36768746
0001f0 73 52 85 3e e8 77 e9 3e 80 41 89 3e 21 97 af 3e
       0.26039466 0.45599294 0.26807785 0.3429499
000200 b5 71 f3 3e 7c 80 93 3e b7 46 b6 3e 5b f5 06 3f
       0.4754769 0.28808963 0.35600826 0.5271813
000210 90 fa cc 3e 39 9f d7 3e bf 85 e2 3e 5e e6 1c be
       0.40034914 0.42113665 0.44242665 -0.15322253
000220 e4 af ab be 73 ae d6 be 75 f8 3a be 09 9a 8d be
       -0.3353263 -0.4192997 -0.18258841 -0.27656582
000230 85 49 08 bf 36 fe a9 be fe cc d3 be 00 5f be be
       -0.5323718 -0.3320176 -0.41367334 -0.37181854
000240 07 34 7e 3e b7 3f 99 3e 1d e0 2e 3e 18 fd 93 3e
       0.24824534 0.29931423 0.1707768 0.28904033
000250 91 0c 8a 3e d7 5b 02 3e a9 f5 35 3e 66 b6 03 3e
       0.26962712 0.12730347 0.17769493 0.12862548
000260 7a 23 b5 3d c8 66 ab be 89 73 a3 be 50 2e fc be
       0.08844657 -0.33476853 -0.31924084 -0.49254084
000270 72 0c 8a be e3 f5 5d be 4a cd ef be 81 08 96 be
       -0.2696262 -0.2167583 -0.4683631 -0.29303363
000280 be 4d b0 be 67 de a0 be e1 47 b0 3e 17 fb 8e 3e
       -0.34434313 -0.3141968 0.3442984 0.2792594
000290 de 5a 32 3e a2 62 c2 3e ff 31 b3 3e 0d 2c 56 3e
       0.17417476 0.37965876 0.34999081 0.20915242
0002a0 7f 88 cc 3e 18 76 c0 3e 70 2d 9c 3e 90 da 36 3e
       0.39947888 0.37590098 0.30503416 0.17856812
0002b0 0e 6e 0d 3e 43 57 7b 3e 78 e9 3d 3e 68 90 32 3e
       0.13811514 0.24545006 0.18546093 0.17437899
0002c0 45 a1 26 3e ad 43 45 3e f0 e9 e0 3d 4d c6 36 3e
       0.16272457 0.19264098 0.1098212 0.17849083
0002d0 e8 73 d8 3e bb a4 bc 3e 57 9a 8a 3e 48 ea e9 3e
       0.4227593 0.3684443 0.27070877 0.45686555
0002e0 51 31 9a 3e 7f 37 06 3e d4 12 9e 3e 60 06 f6 3d
       0.3011575 0.13107108 0.3087374 0.12012935
0002f0 29 27 78 3d ab 70 ca 3e 29 4b b1 3e f8 37 56 3e
       0.06058422 0.39539084 0.34627655 0.20919788
000300 26 76 e4 3e 0d 35 d7 3e 63 5d 8f 3e 75 32 ff 3e
       0.4462139 0.42032662 0.28000936 0.49843183
000310 9d 92 ed 3e 7a 33 75 3e 35 56 8a bb c4 a1 0e bc
       0.4640092 0.23945418 -0.0042217025 -0.00870556
000320 7a 7c 18 ba 2f a4 e3 3b d9 18 a4 3b f2 bb 50 3a
       -0.00058168883 0.0069470624 0.005007845 0.00079625763
000330 d7 c4 7a bc 55 1b fc 3b 6d ab d7 bc cc 9a 8f be
       -0.015305719 0.007693688 -0.02632686 -0.28047788
000340 70 75 b7 be 32 bf de be 2f b7 b7 be e6 e4 77 be
       -0.35831785 -0.43505245 -0.35881945 -0.24208412
000350 04 d7 a6 be f5 10 4a be a3 80 6e be e3 1a ab be
       -0.3258592 -0.19733031 -0.23291259 -0.3341895
000360 b3 f8 ef 3e d9 6d f6 3e fb 61 28 3f 3a a9 dc 3e
       0.4686943 0.48130682 0.65774506 0.4309786
000370 e2 4a f1 3e d9 d8 23 3f 95 eb eb 3e 99 8c 13 3f
       0.47127444 0.6400276 0.46078172 0.5763641
000380 aa e2 40 3f 86 d0 e9 3e 8e 28 b9 3e 64 45 9b 3e
       0.7534586 0.45666903 0.36163753 0.30326378
000390 2d 1f fd 3e 6e fd ca 3e 28 fb a2 3e 2c dd 19 3f
       0.49437848 0.39646477 0.31832242 0.60103106
0003a0 2b 37 f6 3e 52 35 f1 3e 6a 47 07 3f 7d 19 00 3f
       0.48088965 0.47110993 0.52843344 0.5003889
0003b0 f2 4a 20 3f 39 ba f0 3e a9 50 ed 3e 4d 34 14 3f
       0.6261436 0.47017077 0.463506 0.57892305
0003c0 eb b9 e6 3e 53 9d e0 3e 75 f7 d2 3e 5c 75 13 3f
       0.4506372 0.4387003 0.4120442 0.5760095
0003d0 ca ab 02 3f 9f 55 30 3f 20 b3 c4 3e 8f d5 70 3e
       0.5104338 0.6888065 0.38417912 0.23518966
0003e0 05 f3 eb 3e ff a9 bf 3e 1f 34 eb 3e a1 b9 01 3f
       0.46083847 0.37434384 0.45938203 0.5067387
0003f0 fd 4f ea be 6b 44 f4 be ea 46 e2 be b1 2e c3 be
       -0.4576415 -0.4770845 -0.44194728 -0.3812156

layer2.bias f4 [128]
000000 93 9a c0 3e 62 2f bd bb 0f 76 d6 3e 34 fa 13 3f
       0.3761793 -0.0057734707 0.41886947 0.57803655
000010 1f 7d eb 3e 5c 39 02 3f 03 a7 27 3c ee cb 09 3f
       0.45993897 0.50868773 0.01023269 0.53826797
000020 27 ff 0d 3f 91 97 03 3f 7e b5 78 bc 9a aa 00 3f
       0.55467457 0.51403147 -0.01517999 0.5026032
000030 c7 f2 d5 3d 8d f7 ac be 34 95 07 3f ab 53 d9 3e
       0.10446697 -0.33782616 0.5296204 0.42446646
000040 c9 f8 01 3f ba a4 c5 3e ed c4 1b 3e fc b1 0a 3f
       0.5077024 0.3860224 0.1521184 0.5417783
000050 ac d5 eb 3e fb d6 0d 3f ff eb 05 3f 07 0d 0f 3f
       0.46061456 0.5540616 0.52313226 0.55879253
000060 46 39 90 be 78 60 a5 3e 1d 99 39 bc aa 48 26 3b
       -0.28168696 0.32300162 -0.011328009 0.00253729
000070 0e 7e ac ba 73 37 ac 3c 23 26 1a 3e e8 a6 c6 3c
       -0.0013160126 0.021022534 0.1505361 0.024249509
000080 0b 32 c8 3e 51 d5 00 3f b4 04 04 3f a4 69 00 3f
       0.3910068 0.50325495 0.51569676 0.50161195
000090 86 6b 0c 3f 3a 50 0b 3f 86 e7 08 3f 4c 2d 0c 3f
       0.5485157 0.5441929 0.53478277 0.5475662
0000a0 2b 7c e1 3e 9d 65 14 3f ef 4f 0c 3f c1 1d d2 3d
       0.44040045 0.5796755 0.5480947 0.10259581
0000b0 4f b8 87 3c e6 c6 11 3f df 48 0e 3f 79 fb fd 3e
       0.016567377 0.5694412 0.5557994 0.4960592
0000c0 2e 67 0e 3f e9 5c 0b 3f e7 9b ef 3e 73 1f 0a 3f
       0.5562619 0.54438645 0.46798632 0.5395424
0000d0 59 5e 11 3f 44 ec fa 3e 31 a5 40 bc f7 cf 12 3f
       0.5678459 0.4900838 -0.011758135 0.5734858
0000e0 67 7f 12 3f 99 4b d8 3e 7a 5a 0b 3f fd 72 fb 3e
       0.5722565 0.42245176 0.5443493 0.49111167
0000f0 d9 bb 13 3f 00 47 fd 3e 92 43 96 3e 04 cc 08 3f
       0.5770851 0.4946823 0.29348427 0.53436303
000100 c5 e9 15 3f 64 79 66 bc ee 81 02 be b8 5d ab 3d
       0.5855983 -0.014067028 -0.12744877 0.08367485
000110 c6 6e d5 3e 0f eb 0d 3f d3 59 02 3f c2 40 1f bc
       0.41686076 0.55436796 0.5091831 -0.009720029
000120 79 d9 14 3f 4f cd 0a 3f 48 2d 0a 3f 6f 8c aa bc
       0.58144337 0.54219526 0.53975344 -0.020818917
000130 57 9c c9 bb c4 2b 18 bc 67 b3 b5 3e 99 2e 07 3f
       -0.0061526704 -0.009287778 0.35488436 0.5280548
000140 eb 40 9c bc e8 d0 01 3f 16 d1 ff 3e c0 45 f7 3e
       -0.019073924 0.5070939 0.49964207 0.48295403
000150 02 db 0e 3f 52 e1 0b 3f c1 7c 92 bc 96 6b a4 bc
       0.5580293 0.54640687 -0.017881753 -0.020070832
000160 c2 88 ca 3c 75 05 b1 3d d2 24 9e 3b 3b f3 04 3f
       0.024723414 0.08643619 0.0048261667 0.5193364
000170 d2 9e db 3e b8 0d 0b 3f 4f de 17 3f c2 e9 cf 3d
       0.42894608 0.5431781 0.5932359 0.10152008
000180 46 c1 88 3a 2c 16 ff 3e e3 f7 f5 3e ae 5e 19 3f
       0.0010433577 0.49821603 0.48040685 0.59910095
000190 82 ec 56 3c 6b 6a fc 3e 2d 20 d6 3e de e5 9c 3c
       0.013117911 0.4929994 0.41821423 0.019152578
0001a0 45 8d 12 3c ed b0 f2 3e 1a 36 fb 3e 70 80 d5 3d
       0.008944814 0.4740061 0.49064714 0.10424888
0001b0 e9 64 85 3c b0 73 b7 bd 96 63 57 bc 3c 8f 0e 3f
       0.01628347 -0.089576125 -0.013146302 0.5568731
0001c0 1a 28 ca bc 5e 2f bd 3e 08 fc 0f 3f d0 85 f5 3e
       -0.024677325 0.369502 0.56243944 0.47953653
0001d0 24 37 11 3f e2 79 00 3f db b9 08 3f 3f 42 12 3f
       0.5672476 0.5018598 0.5340859 0.57132334
0001e0 b4 f2 13 3f e3 ed 08 3f dc 22 0a 3f 56 7e 83 be
       0.5779221 0.53487986 0.5395944 -0.25682324
0001f0 aa 52 09 3f 35 04 db 3e a0 e7 13 3f 66 c0 13 3f
       0.5364176 0.42776647 0.57775307 0.5771545

output.weight f4 [4, 128]
000000 40 c6 d8 3e 98 13 7e bc a8 97 b6 3e 43 16 f7 3e
       0.42338753 -0.015507601 0.3566258 0.48259172
000010 a2 ac bf 3e 8d 63 cb 3e 1b 19 ba 3c 52 c8 f0 3e
       0.37436396 0.3972439 0.02271705 0.47027832
000020 a9 f7 01 3f 13 d4 f2 3e fc 4c 7f bd ba 5e be 3e
       0.50768524 0.47427425 -0.062329277 0.37181646
000030 7b 2c ad 3e 17 c4 99 be 02 de e8 3e 8a 08 c5 3e
       0.33822998 -0.30032417 0.4548188 0.38483077
000040 9e 0a f5 3e 08 ac b2 3e 35 41 e0 3e 25 1a 05 3f
       0.47859663 0.34896874 0.4379975 0.5199302
000050 74 e9 cd 3e 6d cf c3 3e e1 c2 e3 3e cb 15 e0 3e
       0.40217173 0.3824419 0.44484618 0.43766627
000060 97 b2 d2 be 60 5d e5 3e 43 c3 67 bd 97 02 82 3c
       -0.41151878 0.44797802 -0.0565827 0.015870376
000070 ee 19 46 bd fd ab 98 bd 91 c3 01 3f b8 55 d1 b9
       -0.048364572 -0.07454679 0.50689036 -0.00039927452
000080 39 f3 e2 3e 7f 24 f7 3e 31 73 00 3f 8e 74 fa 3e
       0.4432619 0.48270032 0.5017577 0.4891705
000090 db 60 f8 3e a2 82 ae 3e 07 e2 bf 3e f6 13 cc 3e
       0.48511395 0.3408404 0.37477133 0.3985898
0000a0 6e de 07 3f 47 f6 bc 3e 56 66 ba 3e a1 3f 8a 3e
       0.53073776 0.36906645 0.364062 0.2700167
0000b0 24 69 a6 bb 19 c0 ba 3e 60 81 e2 3e dc 37 b5 3e
       -0.0050784517 0.36474684 0.4423933 0.3539418
0000c0 27 fc d5 3e 31 3d af 3e ad 6f e4 3e 7e 0a d2 3e
       0.4179394 0.34226373 0.44616452 0.4102363
0000d0 fa 81 f1 3e ca d6 b6 3e 2d 7b 1a bc 3d ba e0 3e
       0.47169477 0.35710746 -0.009428781 0.4389209
0000e0 4f 56 d7 3e 76 71 09 3f d3 fb e9 3e fe e1 bd 3e
       0.42058036 0.5368875 0.4569994 0.3708648
0000f0 f5 68 c4 3e a9 09 e5 3e 37 5d f1 3e 7d bc b5 3e
       0.38361326 0.44733933 0.4714143 0.35495368
000100 c8 10 00 3f 27 ad 8a 3c c5 e8 bc be 67 17 d5 3e
       0.50025606 0.016928269 -0.3689634 0.41619417
000110 5d ac c3 3e 81 32 e4 3e 09 51 08 3f 22 79 7d 3c
       0.3821744 0.4456978 0.5324865 0.015470775
000120 88 bd bc 3e a1 2e d0 3e 17 9e d5 3e ea 65 7a bc
       0.3686335 0.40660575 0.41722175 -0.015283087
000130 e8 c0 9e 3d 28 0c 12 3d 64 b7 fa 3e a7 1a fa 3e
       0.07751638 0.035656124 0.4896804 0.4884846
000140 6c 9d 91 bc 27 c8 ab 3e 28 18 d5 3e 96 92 ef 3e
       -0.01777526 0.33551142 0.41619992 0.46791524
000150 55 13 d7 3e b5 c5 e4 3e 37 ad 44 bd 29 4a 88 3c
       0.42006937 0.44682088 -0.048016753 0.016636925
000160 ce a2 13 bd c6 be 98 3e ed b3 31 3d 79 06 af 3e
       -0.036043935 0.2983305 0.04338448 0.34184626
000170 ed 00 c8 3e 13 89 d2 3e ba 7c ca 3e 01 9c d0 3e
       0.39063206 0.41120204 0.39548284 0.40744022
000180 39 bd 3e bc a4 43 c0 3e e8 7e e0 3e 42 2d de 3e
       -0.011641794 0.37551606 0.43846822 0.43393904
000190 d8 75 45 3b 4c 78 d5 3e 7f 84 fc 3e 1e 62 a7 bc
       0.0030130055 0.41693342 0.49319836 -0.020432528
0001a0 35 78 4c bd 54 f5 f4 3e 38 47 e4 3e 51 e6 ad 3e
       -0.049919326 0.4784342 0.44585586 0.3396478
0001b0 74 c0 1e bc f2 cf 2b be 16 b5 8e bd e7 24 b3 3e
       -0.009689439 -0.16778544 -0.06968133 0.34989092
0001c0 02 fe 6b 3d 81 31 00 3f 60 14 e3 3e 23 cf f0 3e
       0.057615288 0.50075537 0.44351482 0.47033033
0001d0 8e aa e5 3e d2 b1 e5 3e f6 89 b7 3e 20 83 e3 3e
       0.44856685 0.4486223 0.35847443 0.44435978
0001e0 ca 6b d7 3e e4 d6 e2 3e 23 ae b5 3e 00 09 ea be
       0.42074424 0.44304574 0.35484418 -0.4570999
0001f0 ac 3b fe 3e e4 74 e9 3e 6a 6c ed 3e c5 d4 e7 3e
       0.496549 0.45596993 0.46371776 0.45279518
000200 4c c4 c1 3e 34 6c 8e bc 07 22 db 3e 08 9f d0 3e
       0.37845075 -0.01738558 0.42799398 0.4074633
000210 8d 17 10 3f 7b ce 02 3f b7 b9 93 bc 04 36 c7 3e
       0.56285936 0.51096314 -0.018032892 0.38908398
000220 14 49 d0 3e 95 7b 03 3f af 41 3c bd 3f b7 98 3e
       0.40680754 0.51360446 -0.04596108 0.29827306
000230 2e 19 74 3e 4b d6 11 bf 77 78 00 3f 56 ef 0e 3f
       0.2383773 -0.5696761 0.50183815 0.5583395
000240 e2 db d1 3e 43 62 b5 3e 0b d7 84 3e fa 96 05 3f
       0.4098807 0.3542653 0.25945315 0.52183497
000250 cc f6 f2 3e 58 dc c7 3e 1a 51 a1 3e dc fa d3 3e
       0.47453916 0.39035296 0.31507188 0.41402328
000260 d3 3a b1 be ca db e5 3e b9 d4 a4 bd 37 3b 72 bd
       -0.34615192 0.44894248 -0.08048386 -0.059138503
000270 df 2e 82 bd 02 48 41 3c 1b 24 8e 3e cf 06 02 bd
       -0.06356596 0.011796953 0.2776192 -0.031744774
000280 5c 1e 01 3f 53 77 b3 3e 33 e6 fd 3e 2e e3 af 3e
       0.5043695 0.35051975 0.4958969 0.34353012
000290 c8 90 bc 3e a0 71 d5 3e 86 92 fd 3e f7 2b cb 3e
       0.3682921 0.41688251 0.4952585 0.3968198
0002a0 9c a2 0c 3f 1b a5 e2 3e 29 f2 b1 3e 9d bf 69 3e
       0.5493562 0.4426659 0.34755066 0.22827001
0002b0 a6 40 7f 3d ad dd e1 3e 77 eb f5 3e e6 56 e9 3e
       0.062317513 0.44114438 0.48031208 0.4557411
0002c0 f8 2c e2 3e 8f 1b f6 3e 27 e9 f7 3e 38 f6 e9 3e
       0.44174933 0.480679 0.4842007 0.45695662
0002d0 ec bd b1 3e d5 5b f3 3e de 3c 1b 3d c5 12 dd 3e
       0.3471521 0.47531 0.037899844 0.43178383
0002e0 95 2d f5 3e 99 45 d2 3e 9f 1d e9 3e ff 49 df 3e
       0.4788634 0.41068724 0.45530412 0.43611142
0002f0 69 f5 bb 3e 08 2a b0 3e a5 f5 9e 3e f1 41 f8 3e
       0.3671067 0.34407067 0.31046787 0.4848781
000300 7a 0c db 3e 79 f1 a5 bd de ec 80 be 6a 3d 59 3e
       0.42782956 -0.08102698 -0.25180715 0.21214834
000310 ea 81 b0 3e 57 76 c6 3e 30 69 0c 3f b1 5b 94 bd
       0.34474117 0.3876216 0.54848003 -0.07244051
000320 84 f5 03 3f 23 2b 06 3f 45 5f a7 3e 4e 2b 8c bd
       0.515465 0.5240957 0.32689872 -0.06844197
000330 d5 14 ee bb 21 37 49 bd c8 55 dd 3e 8d 22 eb 3e
       -0.007265667 -0.04912484 0.43229508 0.45924798
000340 26 5c e9 bc ee 92 ea 3e 65 cd b8 3e bd 71 b8 3e
       -0.028486323 0.45815223 0.36094204 0.36024275
000350 2d 57 ff 3e 9b d8 d7 3e 42 c9 87 bd 85 c4 81 bd
       0.49871197 0.42157444 -0.06630184 -0.06336311
000360 fc 5f 9b bd 23 ee 93 3e e1 d2 16 bd 2c a7 f5 3e
       -0.07586667 0.2889262 -0.036822204 0.47979105
000370 2c 7e dd 3e ae 46 97 3e 48 74 ba 3e 67 62 96 3e
       0.43260324 0.29546112 0.3641684 0.2937195
000380 7e 02 2d bc c9 bc 06 3f cf a5 b3 3e 3c 91 f5 3e
       -0.010559676 0.52631813 0.3508744 0.47962368
000390 d5 5b 26 3d ce b2 fd 3e f8 01 da 3e 12 99 8f bd
       0.04061492 0.4955048 0.42579627 -0.07011618
0003a0 09 9d ae bc 47 a4 d0 3e bd b5 e5 3e b1 ec 49 3e
       -0.021315115 0.40750334 0.44865218 0.19719197
0003b0 b0 c3 82 3d fc 58 f3 bd 45 6a 2b bd be 60 ef 3e
       0.06384981 -0.11882207 -0.041849393 0.46753496
0003c0 98 ea 13 3d b6 c2 01 3f a2 5a d1 3e d5 4e 01 3f
       0.036112398 0.5068773 0.4088946 0.50510913
0003d0 a6 05 00 3f fc 9e e5 3e 20 7c f9 3e f0 fd aa 3e
       0.5000862 0.44847858 0.48727512 0.33396864
0003e0 8f 6f ec 3e 8a 5a a5 3e 24 1f ba 3e 4f 17 0a bf
       0.46178862 0.32295638 0.36351883 -0.53941816
0003f0 4b a1 f2 3e 58 21 b8 3e 32 d3 bb 3e c8 4b c6 3e
       0.47388682 0.3596294 0.36684567 0.38729692

output.bias f4 [4]
000000 0e 2d ba 3d d2 05 0e 3e 24 9d 41 3e 4d 91 47 3e
       0.09090625 0.13869408 0.189076 0.19489022
